src/training/visual_wake_words/trained_models/vww_96_int8_aligned.tflite (tflite, 333584 bytes, 28 tensors)

model/batch_normalization_1/FusedBatchNormV3;model/depthwise_conv2d/depthwise;model/depthwise_conv2d/BiasAdd;model/depthwise_conv2d/BiasAdd/ReadVariableOp/resource i1 [1, 3, 3, 8]
-74 -113 -71 -27 -40 -57 81 41
-5 6 -30 -18 -40 57 1 49
-77 -7 -11 -3 25 49 47 -26
108 78 16 17 52 23 -103 -14
127 44 75 -1 33 -127 -127 -127
40 -27 -25 -3 -62 24 13 38
42 127 127 -1 50 17 34 -73
44 66 70 127 127 50 -72 -63
-91 -104 -1 -46 -72 -82 75 60
00000000: b68f b9e5 d8c7 5129 fb06 e2ee d839 0131
00000010: b3f9 f5fd 1931 2fe6 6c4e 1011 3417 99f2
00000020: 7f2c 4bff 2181 8181 28e5 e7fd c218 0d26
00000030: 2a7f 7fff 3211 22b7 2c42 467f 7f32 b8c1
00000040: a598 ffd2 b8ae 4b3c

model/batch_normalization_11/FusedBatchNormV3;model/depthwise_conv2d_5/depthwise;model/depthwise_conv2d_5/BiasAdd;model/depthwise_conv2d_5/BiasAdd/ReadVariableOp/resource i1 [1, 3, 3, 64]
-24 -69 115 -127 -11 -16 -18 -9
0 101 52 -24 -106 5 83 -93
-89 39 83 33 46 56 -15 72
43 -113 66 -6 -62 43 24 14
103 51 -31 54 -127 44 -91 99
-46 127 101 89 -100 -28 -22 -23
-36 56 55 -41 -77 23 90 86
127 42 15 26 -57 43 15 -127
127 -118 5 -96 57 -127 -21 31
-71 127 35 -35 0 -35 103 58
-127 123 58 -13 93 123 44 104
78 -34 28 24 -127 67 116 68
127 38 -14 34 6 81 -93 127
-59 -9 89 127 -77 -127 17 -55
-1 87 -17 -127 -127 -29 17 127
82 85 68 120 -104 68 100 -97
120 -45 -64 -99 62 21 4 -127
-127 67 47 -41 48 -95 66 127
-98 127 2 -59 54 55 55 63
50 50 -19 19 -84 24 62 71
1 -127 7 10 21 83 3 67
-72 -31 -10 106 -40 -89 47 12
10 60 -127 -31 -78 -127 -127 62
9 85 90 111 -61 39 104 -45
-76 -127 121 -81 88 -112 3 71
-17 75 94 -120 -127 -32 72 -81
-73 39 114 -76 82 95 80 102
69 -72 127 21 -79 103 91 -104
23 78 127 99 -101 -127 -127 57
-10 -52 113 63 -95 -113 60 -9
-104 98 88 86 -84 69 95 87
40 -99 66 53 -3 54 62 39
00000000: e8bb 7381 f5f0 eef7 0065 34e8 9605 53a3
00000010: a727 5321 2e38 f148 2b8f 42fa c22b 180e
00000020: 6733 e136 812c a563 d27f 6559 9ce4 eae9
00000030: dc38 37d7 b317 5a56 7f2a 0f1a c72b 0f81
00000040: 7f8a 05a0 3981 eb1f b97f 23dd 00dd 673a
00000050: 817b 3af3 5d7b 2c68 4ede 1c18 8143 7444
00000060: 7f26 f222 0651 a37f c5f7 597f b381 11c9
00000070: ff57 ef81 81e3 117f 5255 4478 9844 649f
00000080: 78d3 c09d 3e15 0481 8143 2fd7 30a1 427f
00000090: 9e7f 02c5 3637 373f 3232 ed13 ac18 3e47
000000a0: 0181 070a 1553 0343 b8e1 f66a d8a7 2f0c
000000b0: 0a3c 81e1 b281 813e 0955 5a6f c327 68d3
000000c0: b481 79af 5890 0347 ef4b 5e88 81e0 48af
000000d0: b727 72b4 525f 5066 45b8 7f15 b167 5b98
000000e0: 174e 7f63 9b81 8139 f6cc 713f a18f 3cf7
000000f0: 9862 5856 ac45 5f57 289d 4235 fd36 3e27

model/batch_normalization_13/FusedBatchNormV3;model/depthwise_conv2d_6/depthwise;model/depthwise_conv2d_6/BiasAdd;model/depthwise_conv2d_11/depthwise;model/depthwise_conv2d_6/BiasAdd/ReadVariableOp/resource i1 [1, 3, 3, 128]
-119 -108 89 7 14 -47 15 29
100 -127 127 -16 -9 -81 -127 127
-20 -1 13 3 -13 25 -57 -57
20 0 -40 114 121 -42 -16 108
-95 -22 -63 -11 -104 -61 -4 2
89 -19 -30 -127 -98 -2 127 -3
-20 127 -17 -51 -62 -75 127 9
-60 7 -68 6 -63 127 -96 42
-47 -81 51 -33 23 8 18 -127
-28 -127 48 39 -39 49 -127 -53
81 -57 -95 -29 127 -86 -1 -127
46 -87 -63 -22 18 -101 3 22
-21 -109 -127 11 -27 69 -3 -38
-38 127 -80 38 -27 -113 15 -127
-117 127 -55 -16 -127 -119 -38 30
59 -100 17 -28 -18 -127 -68 -70
-26 127 28 -88 17 -100 -36 53
107 -62 -7 48 -59 -39 -71 116
-82 -43 10 -12 -4 79 -10 -55
0 -35 34 6 109 -49 15 -48
32 -47 -127 63 3 -39 90 65
6 -95 -4 -90 -127 25 0 -5
-44 -86 -127 -45 41 16 -38 -18
-26 -17 -105 -127 -64 26 -26 -41
127 33 -116 14 -13 -33 78 -99
1 85 -127 -73 -32 -48 -59 5
-77 -49 -20 127 20 -127 43 37
1 57 -30 38 6 -75 -4 -101
-47 11 -2 -114 24 -13 -58 -106
-83 99 -73 73 57 -25 -13 61
-127 88 67 -127 -92 -14 127 127
24 -115 62 -101 -15 -20 -41 11
00000000: 8994 5907 0ed1 0f1d 6481 7ff0 f7af 817f
00000010: ecff 0d03 f319 c7c7 1400 d872 79d6 f06c
00000020: a1ea c1f5 98c3 fc02 59ed e281 9efe 7ffd
00000030: ec7f efcd c2b5 7f09 c407 bc06 c17f a02a
00000040: d1af 33df 1708 1281 e481 3027 d931 81cb
00000050: 51c7 a1e3 7faa ff81 2ea9 c1ea 129b 0316
00000060: eb93 810b e545 fdda da7f b026 e58f 0f81
00000070: 8b7f c9f0 8189 da1e 3b9c 11e4 ee81 bcba
00000080: e67f 1ca8 119c dc35 6bc2 f930 c5d9 b974
00000090: aed5 0af4 fc4f f6c9 00dd 2206 6dcf 0fd0
000000a0: 20d1 813f 03d9 5a41 06a1 fca6 8119 00fb
000000b0: d4aa 81d3 2910 daee e6ef 9781 c01a e6d7
000000c0: 7f21 8c0e f3df 4e9d 0155 81b7 e0d0 c505
000000d0: b3cf ec7f 1481 2b25 0139 e226 06b5 fc9b
000000e0: d10b fe8e 18f3 c696 ad63 b749 39e7 f33d
000000f0: 8158 4381 a4f2 7f7f 188d 3e9b f1ec d70b

model/batch_normalization_15/FusedBatchNormV3;model/depthwise_conv2d_7/depthwise;model/depthwise_conv2d_7/BiasAdd;model/depthwise_conv2d_11/depthwise;model/depthwise_conv2d_7/BiasAdd/ReadVariableOp/resource i1 [1, 3, 3, 128]
-14 -71 -13 89 5 -20 0 -41
-127 127 -41 127 -127 -116 9 91
-88 -5 -61 92 12 108 -37 -28
-127 9 -32 -23 -18 16 56 127
-12 -89 36 127 5 -76 20 -127
-127 127 -44 127 -127 -18 -88 -63
-39 -32 -13 -4 -115 -123 71 -14
-6 -35 -111 -127 -107 9 -124 -127
-33 -127 73 -12 55 -127 116 -54
-16 -26 -90 -58 -127 -53 -14 -14
127 -39 -65 -127 44 -127 5 -27
-76 -50 -48 -76 -4 44 31 -127
103 56 -59 -127 -21 -119 10 70
-127 127 13 37 -127 -15 15 -127
-16 -84 -17 -6 -127 -20 -127 -3
-127 -22 15 -23 -35 -127 9 127
-15 -107 23 62 25 21 49 -26
-56 -24 -47 13 16 -81 15 -15
5 10 -40 127 -16 43 0 -127
-107 69 -2 -50 -127 -109 72 107
26 66 127 43 11 -106 -50 23
-109 19 44 54 -121 -94 -13 -44
-60 14 18 -14 -108 16 -56 -24
-15 -20 -34 -6 -14 -26 -60 -118
-18 6 -3 -12 46 -21 28 10
-5 11 -73 14 -44 3 -32 8
-24 -108 53 -93 -108 -8 -35 39
-127 29 15 -1 -38 -45 127 7
127 46 11 -50 -56 -3 -74 -7
-60 70 0 -6 -18 12 -47 20
31 0 -12 -77 16 -127 -65 25
-7 12 -10 57 0 -108 -21 71
00000000: f2b9 f359 05ec 00d7 817f d77f 818c 095b
00000010: a8fb c35c 0c6c dbe4 8109 e0e9 ee10 387f
00000020: f4a7 247f 05b4 1481 817f d47f 81ee a8c1
00000030: d9e0 f3fc 8d85 47f2 fadd 9181 9509 8481
00000040: df81 49f4 3781 74ca f0e6 a6c6 81cb f2f2
00000050: 7fd9 bf81 2c81 05e5 b4ce d0b4 fc2c 1f81
00000060: 6738 c581 eb89 0a46 817f 0d25 81f1 0f81
00000070: f0ac effa 81ec 81fd 81ea 0fe9 dd81 097f
00000080: f195 173e 1915 31e6 c8e8 d10d 10af 0ff1
00000090: 050a d87f f02b 0081 9545 fece 8193 486b
000000a0: 1a42 7f2b 0b96 ce17 9313 2c36 87a2 f3d4
000000b0: c40e 12f2 9410 c8e8 f1ec defa f2e6 c48a
000000c0: ee06 fdf4 2eeb 1c0a fb0b b70e d403 e008
000000d0: e894 35a3 94f8 dd27 811d 0fff dad3 7f07
000000e0: 7f2e 0bce c8fd b6f9 c446 00fa ee0c d114
000000f0: 1f00 f4b3 1081 bf19 f90c f639 0094 eb47

model/batch_normalization_17/FusedBatchNormV3;model/depthwise_conv2d_8/depthwise;model/depthwise_conv2d_8/BiasAdd;model/depthwise_conv2d_11/depthwise;model/depthwise_conv2d_8/BiasAdd/ReadVariableOp/resource i1 [1, 3, 3, 128]
-127 -127 -38 -22 -75 -127 -86 127
-32 -16 -32 -52 -13 -127 127 20
127 9 -36 -100 1 2 -127 -24
-121 -27 -102 -22 -83 -14 20 20
-7 -37 -127 -48 14 16 23 -127
20 2 -85 -127 -127 -117 8 -93
-4 -54 58 39 -14 -28 -38 33
-29 -118 15 -6 -10 -127 39 -127
-41 -44 -26 -14 -20 29 3 6
3 3 -29 -16 -17 -13 -30 -55
-127 106 12 30 -92 -79 29 -5
-39 -38 26 20 -62 2 -10 -74
21 -1 27 8 -32 -61 -79 -81
-42 9 -91 63 57 44 -47 -109
-89 -28 6 40 -75 -24 -36 33
-35 -127 6 -32 -41 -37 106 1
-16 -116 -21 -6 -127 -84 -127 14
-26 4 -94 4 -63 -13 10 14
65 -37 0 -127 1 -6 -127 -9
4 0 -45 127 20 -127 -80 11
-5 -127 104 1 1 -45 -23 -66
-46 3 -127 -90 -44 -127 -7 -6
12 125 55 -1 8 26 -127 -90
-105 -127 -9 16 14 -45 -40 -83
-127 -45 -102 -11 6 -12 -127 111
-75 -2 -42 -127 22 -90 -43 -7
-126 35 -80 127 -73 -14 53 -46
29 -19 9 -48 -127 -45 15 9
-39 12 127 -21 -62 -1 -85 -127
-39 -21 -76 -42 127 54 -2 -113
-127 15 17 45 -13 15 40 73
22 -9 -32 -33 -9 -26 59 -19
00000000: 8181 daea b581 aa7f e0f0 e0cc f381 7f14
00000010: 7f09 dc9c 0102 81e8 87e5 9aea adf2 1414
00000020: f9db 81d0 0e10 1781 1402 ab81 818b 08a3
00000030: fcca 3a27 f2e4 da21 e38a 0ffa f681 2781
00000040: d7d4 e6f2 ec1d 0306 0303 e3f0 eff3 e2c9
00000050: 816a 0c1e a4b1 1dfb d9da 1a14 c202 f6b6
00000060: 15ff 1b08 e0c3 b1af d609 a53f 392c d193
00000070: a7e4 0628 b5e8 dc21 dd81 06e0 d7db 6a01
00000080: f08c ebfa 81ac 810e e604 a204 c1f3 0a0e
00000090: 41db 0081 01fa 81f7 0400 d37f 1481 b00b
000000a0: fb81 6801 01d3 e9be d203 81a6 d481 f9fa
000000b0: 0c7d 37ff 081a 81a6 9781 f710 0ed3 d8ad
000000c0: 81d3 9af5 06f4 816f b5fe d681 16a6 d5f9
000000d0: 8223 b07f b7f2 35d2 1ded 09d0 81d3 0f09
000000e0: d90c 7feb c2ff ab81 d9eb b4d6 7f36 fe8f
000000f0: 810f 112d f30f 2849 16f7 e0df f7e6 3bed

model/batch_normalization_19/FusedBatchNormV3;model/depthwise_conv2d_9/depthwise;model/depthwise_conv2d_9/BiasAdd;model/depthwise_conv2d_11/depthwise;model/depthwise_conv2d_9/BiasAdd/ReadVariableOp/resource i1 [1, 3, 3, 128]
32 26 127 -52 -109 -31 93 15
-95 -13 -115 30 46 15 -16 -13
-66 3 -71 -127 9 -60 -127 -127
-42 10 7 -44 11 -124 -25 -20
-25 -77 6 35 25 14 -16 -79
-7 7 7 1 -118 14 -18 -127
-127 -127 -69 35 -28 72 1 -53
-1 -127 -91 21 29 -58 -16 -53
-127 32 6 -27 13 -47 21 -7
-5 -127 -6 127 -54 -127 36 -1
-33 -127 -15 -37 25 -15 -91 -14
-100 -84 -97 -6 17 -127 -127 -127
-127 -56 39 18 -107 2 127 -127
1 0 3 -46 3 -127 -38 -100
-7 19 30 -127 -21 -25 -12 -7
-127 -69 -119 -23 17 17 -127 -43
-47 -91 -14 8 -127 -114 -61 -23
-125 31 -127 -127 -90 -59 -21 9
127 42 -113 17 -50 -1 17 -57
-87 -38 -53 -127 -64 -127 -127 55
9 -127 127 15 -18 -20 13 -127
-14 3 -8 -38 -127 -4 -8 -94
-74 -40 -47 -23 -36 -53 -50 -62
12 -48 -4 -8 -44 -127 -120 20
-51 -34 -127 -34 -66 -19 -3 18
-127 -25 7 62 -55 6 -72 7
-38 -12 0 -73 -12 11 -75 11
26 -6 -6 -127 -23 -25 -4 -108
-39 -127 27 23 -59 -38 17 -15
19 9 20 -45 -7 17 -7 -78
-3 -95 72 -81 -4 7 41 112
-86 -12 -109 23 22 17 -119 -1
00000000: 201a 7fcc 93e1 5d0f a1f3 8d1e 2e0f f0f3
00000010: be03 b981 09c4 8181 d60a 07d4 0b84 e7ec
00000020: e7b3 0623 190e f0b1 f907 0701 8a0e ee81
00000030: 8181 bb23 e448 01cb ff81 a515 1dc6 f0cb
00000040: 8120 06e5 0dd1 15f9 fb81 fa7f ca81 24ff
00000050: df81 f1db 19f1 a5f2 9cac 9ffa 1181 8181
00000060: 81c8 2712 9502 7f81 0100 03d2 0381 da9c
00000070: f913 1e81 ebe7 f4f9 81bb 89e9 1111 81d5
00000080: d1a5 f208 818e c3e9 831f 8181 a6c5 eb09
00000090: 7f2a 8f11 ceff 11c7 a9da cb81 c081 8137
000000a0: 0981 7f0f eeec 0d81 f203 f8da 81fc f8a2
000000b0: b6d8 d1e9 dccb cec2 0cd0 fcf8 d481 8814
000000c0: cdde 81de beed fd12 81e7 073e c906 b807
000000d0: daf4 00b7 f40b b50b 1afa fa81 e9e7 fc94
000000e0: d981 1b17 c5da 11f1 1309 14d3 f911 f9b2
000000f0: fda1 48af fc07 2970 aaf4 9317 1611 89ff

model/batch_normalization_21/FusedBatchNormV3;model/depthwise_conv2d_10/depthwise;model/depthwise_conv2d_10/BiasAdd;model/depthwise_conv2d_11/depthwise;model/depthwise_conv2d_10/BiasAdd/ReadVariableOp/resource i1 [1, 3, 3, 128]
-3 -36 -106 9 -98 -80 -127 19
-77 -41 58 -46 -2 -29 0 -9
-23 -5 -31 -10 -39 -123 16 0
-23 -115 -49 -16 -36 -3 -1 -30
-4 2 -75 8 -15 -6 -101 -90
-127 3 -4 -53 -38 24 5 -78
17 -8 -22 -127 -127 -35 -127 -127
-127 -127 14 14 -101 -102 -6 -21
127 -76 -127 -6 -25 -127 17 -124
-47 -127 5 -19 15 -23 -13 17
-8 -100 -25 4 -26 -52 -29 -37
60 8 66 -7 -6 -127 -57 -127
20 -85 -20 39 -93 -42 -127 19
-127 0 -63 -9 -26 5 -10 -47
20 -28 -52 -93 -24 -18 25 -9
-85 -127 11 -43 -5 25 -57 1
25 48 -123 19 -44 -30 77 -72
-60 -59 -51 84 22 16 23 -45
21 -12 -29 5 21 -27 -1 -12
-127 -93 -96 -32 -31 -33 -39 35
10 -38 -127 -6 10 5 14 -127
-87 -41 -127 -40 -127 -28 -19 -87
-61 -8 12 -43 -49 23 -81 -62
-105 25 6 -127 -89 -127 44 8
80 -35 -90 36 9 -75 -72 -105
22 -27 -5 15 -16 -127 127 -25
3 -43 -29 -122 35 0 -11 108
-77 -6 -36 10 -68 -21 -76 25
-66 -13 9 -12 -52 -127 -36 -27
-87 13 -6 -72 84 -105 -75 -127
-34 -102 127 4 32 -72 127 -17
-13 -38 -78 -1 127 -57 -7 4
00000000: fddc 9609 9eb0 8113 b3d7 3ad2 fee3 00f7
00000010: e9fb e1f6 d985 1000 e98d cff0 dcfd ffe2
00000020: fc02 b508 f1fa 9ba6 8103 fccb da18 05b2
00000030: 11f8 ea81 81dd 8181 8181 0e0e 9b9a faeb
00000040: 7fb4 81fa e781 1184 d181 05ed 0fe9 f311
00000050: f89c e704 e6cc e3db 3c08 42f9 fa81 c781
00000060: 14ab ec27 a3d6 8113 8100 c1f7 e605 f6d1
00000070: 14e4 cca3 e8ee 19f7 ab81 0bd5 fb19 c701
00000080: 1930 8513 d4e2 4db8 c4c5 cd54 1610 17d3
00000090: 15f4 e305 15e5 fff4 81a3 a0e0 e1df d923
000000a0: 0ada 81fa 0a05 0e81 a9d7 81d8 81e4 eda9
000000b0: c3f8 0cd5 cf17 afc2 9719 0681 a781 2c08
000000c0: 50dd a624 09b5 b897 16e5 fb0f f081 7fe7
000000d0: 03d5 e386 2300 f56c b3fa dc0a bceb b419
000000e0: bef3 09f4 cc81 dce5 a90d fab8 5497 b581
000000f0: de9a 7f04 20b8 7fef f3da b2ff 7fc7 f904

model/batch_normalization_23/FusedBatchNormV3;model/depthwise_conv2d_11/depthwise;model/depthwise_conv2d_11/BiasAdd;model/depthwise_conv2d_11/BiasAdd/ReadVariableOp/resource i1 [1, 3, 3, 128]
15 -102 -11 -12 15 -2 48 8
-23 114 -9 8 8 11 -29 2
-46 -9 4 5 13 0 -6 16
-106 36 -4 -6 -66 9 -18 -127
-37 -47 -40 17 19 -42 8 -12
12 -127 40 -27 -17 -14 27 15
-127 -127 -13 -65 -85 -23 -52 18
17 -127 22 -15 -11 -39 -127 -4
-88 44 12 -21 -1 -89 8 -92
-62 20 9 16 -45 12 3 5
-19 1 -57 -9 -115 -58 -40 31
14 -53 4 -44 9 -99 -3 13
23 64 7 -30 11 36 31 -56
-12 -127 22 20 127 74 28 17
28 23 -127 -85 -9 -27 20 18
-127 41 73 3 -65 -8 -85 -80
-36 -4 120 21 -25 -18 120 -26
44 92 127 -30 -7 -38 4 127
33 93 -8 -45 -38 7 -54 -24
-24 -28 -127 0 127 -64 -19 -10
49 -28 -102 127 127 -22 -17 -91
-5 64 -17 9 -36 27 -68 -32
-29 22 -85 1 -27 31 65 -127
-31 -69 -17 -82 -127 87 18 31
-46 -36 23 -8 -13 -28 0 -68
-3 -28 61 -59 19 127 -3 -20
40 -5 -127 6 -127 68 25 127
-9 -127 -43 56 127 -49 8 -45
-18 102 4 14 9 127 -40 33
-6 -91 127 -38 95 40 -27 71
127 -25 5 -127 0 -127 127 -24
-23 127 -106 -127 -81 11 -104 64
00000000: 0f9a f5f4 0ffe 3008 e972 f708 080b e302
00000010: d2f7 0405 0d00 fa10 9624 fcfa be09 ee81
00000020: dbd1 d811 13d6 08f4 0c81 28e5 eff2 1b0f
00000030: 8181 f3bf abe9 cc12 1181 16f1 f5d9 81fc
00000040: a82c 0ceb ffa7 08a4 c214 0910 d30c 0305
00000050: ed01 c7f7 8dc6 d81f 0ecb 04d4 099d fd0d
00000060: 1740 07e2 0b24 1fc8 f481 1614 7f4a 1c11
00000070: 1c17 81ab f7e5 1412 8129 4903 bff8 abb0
00000080: dcfc 7815 e7ee 78e6 2c5c 7fe2 f9da 047f
00000090: 215d f8d3 da07 cae8 e8e4 8100 7fc0 edf6
000000a0: 31e4 9a7f 7fea efa5 fb40 ef09 dc1b bce0
000000b0: e316 ab01 e51f 4181 e1bb efae 8157 121f
000000c0: d2dc 17f8 f3e4 00bc fde4 3dc5 137f fdec
000000d0: 28fb 8106 8144 197f f781 d538 7fcf 08d3
000000e0: ee66 040e 097f d821 faa5 7fda 5f28 e547
000000f0: 7fe7 0581 0081 7fe8 e97f 9681 af0b 9840

model/batch_normalization_25/FusedBatchNormV3;model/depthwise_conv2d_12/depthwise;model/depthwise_conv2d_12/BiasAdd;model/conv2d_13/Conv2D;model/depthwise_conv2d_12/BiasAdd/ReadVariableOp/resource i1 [1, 3, 3, 256]
7 16 -2 -2 12 -113 -122 -127
12 -105 2 -12 -127 -59 -3 -39
-127 -81 -127 -5 -1 2 -127 -4
-127 -127 7 -24 -127 10 -8 4
-2 -4 -14 -76 -127 14 -7 -127
-5 127 127 -127 -90 -59 9 -127
5 -127 6 18 6 -120 6 -6
-127 -10 8 4 -40 25 51 -127
2 -9 -127 -11 -24 -127 -127 -65
-127 20 4 -99 9 7 -35 2
-11 -49 -127 0 -127 -4 -127 2
9 -12 6 -127 -127 -127 -20 49
-93 -24 -60 -79 9 -8 -17 -46
-9 -8 -127 -127 0 -7 0 -10
-8 -58 -127 -9 -127 -77 -127 -16
-127 4 8 -93 -4 -5 -51 4
-1 -12 -21 -84 -101 13 -66 18
2 -49 -111 -127 6 -30 -127 -5
5 7 5 -3 21 -10 -15 8
8 -127 1 3 -86 -127 -10 -127
-41 -44 -127 -127 -8 -22 -84 -127
-15 -1 -113 0 6 -127 -3 -1
30 -14 -18 3 -127 7 11 -61
-5 -14 -127 5 0 5 -45 -127
-18 30 -20 3 -102 -75 7 -127
-9 -6 -9 -127 -40 24 23 2
61 -10 5 -18 -58 -127 -127 4
5 -57 -24 -23 -127 -61 -127 45
-8 -30 -127 4 1 0 -16 -4
2 7 9 1 -82 -2 -88 -127
-4 -108 -4 -127 -67 -19 -7 -120
14 -51 -29 -62 -9 10 17 -127
00000000: 0710 fefe 0c8f 8681 0c97 02f4 81c5 fdd9
00000010: 81af 81fb ff02 81fc 8181 07e8 810a f804
00000020: fefc f2b4 810e f981 fb7f 7f81 a6c5 0981
00000030: 0581 0612 0688 06fa 81f6 0804 d819 3381
00000040: 02f7 81f5 e881 81bf 8114 049d 0907 dd02
00000050: f5cf 8100 81fc 8102 09f4 0681 8181 ec31
00000060: a3e8 c4b1 09f8 efd2 f7f8 8181 00f9 00f6
00000070: f8c6 81f7 81b3 81f0 8104 08a3 fcfb cd04
00000080: fff4 ebac 9b0d be12 02cf 9181 06e2 81fb
00000090: 0507 05fd 15f6 f108 0881 0103 aa81 f681
000000a0: d7d4 8181 f8ea ac81 f1ff 8f00 0681 fdff
000000b0: 1ef2 ee03 8107 0bc3 fbf2 8105 0005 d381
000000c0: ee1e ec03 9ab5 0781 f7fa f781 d818 1702
000000d0: 3df6 05ee c681 8104 05c7 e8e9 81c3 812d
000000e0: f8e2 8104 0100 f0fc 0207 0901 aefe a881
000000f0: fc94 fc81 bded f988 0ecd e3c2 f70a 1181

model/batch_normalization_3/FusedBatchNormV3;model/depthwise_conv2d_1/depthwise;model/depthwise_conv2d_1/BiasAdd;model/depthwise_conv2d_1/BiasAdd/ReadVariableOp/resource i1 [1, 3, 3, 16]
-10 19 1 -29 -127 -127 -18 -63
-33 -31 -46 -29 12 23 -45 -124
-23 10 -1 127 -58 36 48 -89
-110 13 127 -33 38 27 -120 -84
19 -59 -3 92 9 19 38 -59
116 33 -64 -13 27 -3 -57 -5
50 -72 -14 14 -76 81 90 -80
-86 43 5 -48 117 113 -52 -127
63 -108 -127 66 -12 -110 113 -127
-45 127 -61 -127 127 127 -127 -23
6 -43 -70 59 18 30 22 -58
94 100 71 -38 59 27 -97 26
104 -66 19 0 21 64 127 -4
-118 69 14 -39 121 84 -35 -39
127 -127 -66 -83 18 21 98 -40
127 114 -48 -66 98 94 -87 7
19 9 -53 -30 21 -53 21 -12
70 20 14 -49 3 20 -83 53
00000000: f613 01e3 8181 eec1 dfe1 d2e3 0c17 d384
00000010: e90a ff7f c624 30a7 920d 7fdf 261b 88ac
00000020: 13c5 fd5c 0913 26c5 7421 c0f3 1bfd c7fb
00000030: 32b8 f20e b451 5ab0 aa2b 05d0 7571 cc81
00000040: 3f94 8142 f492 7181 d37f c381 7f7f 81e9
00000050: 06d5 ba3b 121e 16c6 5e64 47da 3b1b 9f1a
00000060: 68be 1300 1540 7ffc 8a45 0ed9 7954 ddd9
00000070: 7f81 bead 1215 62d8 7f72 d0be 625e a907
00000080: 1309 cbe2 15cb 15f4 4614 0ecf 0314 ad35

model/batch_normalization_5/FusedBatchNormV3;model/depthwise_conv2d_2/depthwise;model/depthwise_conv2d_2/BiasAdd;model/depthwise_conv2d_3/depthwise;model/depthwise_conv2d_2/BiasAdd/ReadVariableOp/resource i1 [1, 3, 3, 32]
0 -127 7 -12 7 114 6 68
-111 -7 7 -30 -38 -42 28 -47
-70 -73 -24 127 81 -28 -17 90
-3 -37 -34 -8 -8 92 10 87
72 124 -127 47 -89 -61 54 7
-112 62 55 -111 55 86 -42 45
-101 115 -127 -39 -80 74 -22 -98
-111 -78 21 127 99 127 -35 8
-20 23 34 -29 27 -6 -53 24
-85 -7 -58 43 32 70 3 27
-33 127 -49 -35 -25 22 -52 -51
23 127 12 26 -8 -35 26 -32
8 53 39 -47 16 127 -14 18
48 8 -98 11 -47 -127 -74 -4
127 -59 -13 93 -116 39 -37 -55
-24 -18 -47 -50 -69 99 -93 83
127 14 -94 127 -98 -92 127 -79
127 127 127 -127 127 -46 127 127
85 33 111 -71 127 127 -72 -122
-127 -78 69 53 127 -92 -127 127
86 -31 -30 84 -10 -75 -80 -38
52 -3 94 110 30 68 -7 84
-77 36 84 -46 30 11 127 127
-19 96 127 107 -49 -103 -32 44
-104 84 74 -41 73 23 0 -21
22 -21 -13 8 -30 -37 49 -30
-54 -16 15 -4 24 13 -35 -72
49 -6 -16 3 -81 -50 -7 -20
0 -76 -2 23 -127 -28 36 -127
55 115 -90 -87 -27 -51 -40 39
98 -69 -4 12 -69 25 -104 -49
-23 -17 38 -79 58 -62 -109 0
00000000: 0081 07f4 0772 0644 91f9 07e2 dad6 1cd1
00000010: bab7 e87f 51e4 ef5a fddb def8 f85c 0a57
00000020: 487c 812f a7c3 3607 903e 3791 3756 d62d
00000030: 9b73 81d9 b04a ea9e 91b2 157f 637f dd08
00000040: ec17 22e3 1bfa cb18 abf9 c62b 2046 031b
00000050: df7f cfdd e716 cccd 177f 0c1a f8dd 1ae0
00000060: 0835 27d1 107f f212 3008 9e0b d181 b6fc
00000070: 7fc5 f35d 8c27 dbc9 e8ee d1ce bb63 a353
00000080: 7f0e a27f 9ea4 7fb1 7f7f 7f81 7fd2 7f7f
00000090: 5521 6fb9 7f7f b886 81b2 4535 7fa4 817f
000000a0: 56e1 e254 f6b5 b0da 34fd 5e6e 1e44 f954
000000b0: b324 54d2 1e0b 7f7f ed60 7f6b cf99 e02c
000000c0: 9854 4ad7 4917 00eb 16eb f308 e2db 31e2
000000d0: caf0 0ffc 180d ddb8 31fa f003 afce f9ec
000000e0: 00b4 fe17 81e4 2481 3773 a6a9 e5cd d827
000000f0: 62bb fc0c bb19 98cf e9ef 26b1 3ac2 9300

model/batch_normalization_7/FusedBatchNormV3;model/depthwise_conv2d_3/depthwise;model/depthwise_conv2d_3/BiasAdd;model/depthwise_conv2d_3/BiasAdd/ReadVariableOp/resource i1 [1, 3, 3, 32]
44 -6 74 -83 82 -41 81 -34
0 -124 52 -66 75 -74 -21 -23
-78 -32 -62 -71 -61 7 -76 42
54 86 -40 75 -20 25 80 -75
91 -75 -81 -76 110 -59 127 -65
-89 -127 115 56 40 -127 -77 -68
-56 -62 -76 -60 -6 -47 15 65
30 127 -105 99 -54 75 102 -127
67 -26 -73 30 59 -28 47 -48
-86 -46 65 64 -21 -53 -87 -77
-7 -32 -20 9 77 -103 41 32
-28 39 -78 26 -68 55 23 -48
88 -72 127 -78 -20 -76 102 -78
-77 10 100 -127 127 -109 -61 -40
-66 -80 -75 -45 -1 -92 -127 45
84 123 -126 119 -66 54 112 -41
127 -127 -45 29 -19 -127 116 -127
-127 21 127 50 100 -118 -127 -124
-127 -127 -127 -127 109 -112 57 124
121 94 -127 127 -127 127 127 -81
66 -53 -80 97 1 -53 42 -59
-48 37 80 65 -12 -47 -32 -127
-104 -52 -60 -82 127 -127 100 127
53 4 -29 24 -71 66 2 -40
61 -76 56 -9 -87 -39 21 -4
-40 83 87 -40 67 -45 -27 -44
-7 -59 -66 -17 74 -40 -26 -3
69 18 -73 53 -7 51 60 20
76 -66 -17 93 -127 -60 13 -86
-59 94 82 -6 79 -17 -25 -81
-57 -72 -63 -41 118 -76 60 96
127 -22 -47 57 -53 45 29 -5
00000000: 2cfa 4aad 52d7 51de 0084 34be 4bb6 ebe9
00000010: b2e0 c2b9 c307 b42a 3656 d84b ec19 50b5
00000020: 5bb5 afb4 6ec5 7fbf a781 7338 2881 b3bc
00000030: c8c2 b4c4 fad1 0f41 1e7f 9763 ca4b 6681
00000040: 43e6 b71e 3be4 2fd0 aad2 4140 ebcb a9b3
00000050: f9e0 ec09 4d99 2920 e427 b21a bc37 17d0
00000060: 58b8 7fb2 ecb4 66b2 b30a 6481 7f93 c3d8
00000070: beb0 b5d3 ffa4 812d 547b 8277 be36 70d7
00000080: 7f81 d31d ed81 7481 8115 7f32 648a 8184
00000090: 8181 8181 6d90 397c 795e 817f 817f 7faf
000000a0: 42cb b061 01cb 2ac5 d025 5041 f4d1 e081
000000b0: 98cc c4ae 7f81 647f 3504 e318 b942 02d8
000000c0: 3db4 38f7 a9d9 15fc d853 57d8 43d3 e5d4
000000d0: f9c5 beef 4ad8 e6fd 4512 b735 f933 3c14
000000e0: 4cbe ef5d 81c4 0daa c55e 52fa 4fef e7af
000000f0: c7b8 c1d7 76b4 3c60 7fea d139 cb2d 1dfb

model/batch_normalization_9/FusedBatchNormV3;model/depthwise_conv2d_4/depthwise;model/depthwise_conv2d_4/BiasAdd;model/depthwise_conv2d_5/depthwise;model/depthwise_conv2d_4/BiasAdd/ReadVariableOp/resource i1 [1, 3, 3, 64]
-78 -105 18 -106 -116 19 -35 84
-77 10 -77 17 -7 56 -53 -16
-37 73 62 15 -96 -106 54 58
107 59 86 -53 -37 -60 10 -3
19 -108 -16 17 28 -102 -2 41
-46 -68 -58 -4 7 -23 76 8
127 -102 83 24 16 -62 -98 -74
127 124 -73 55 107 -53 -19 -50
93 -9 -122 20 -127 82 90 -14
95 -95 -50 -37 45 -2 -91 44
-60 66 121 -90 127 38 14 -81
-102 -114 39 -127 -72 -109 25 -11
-15 -127 117 -93 -127 103 23 -16
-31 109 -123 102 27 -17 22 59
-24 102 101 3 57 -116 -127 -92
-28 127 -28 77 -28 -80 -22 -28
-51 -30 -18 108 -83 -40 127 -122
50 1 48 -51 16 -48 -70 -26
-37 -74 -31 47 72 127 72 -21
-54 15 81 -89 -80 -35 22 -44
-53 -64 0 -25 -7 -111 22 -127
-15 -73 -78 56 -58 -26 -38 46
-31 23 13 -38 14 -127 -92 -75
-45 84 -95 -91 -41 -15 -2 127
-25 94 85 -9 4 -127 -86 127
-42 -124 43 90 43 126 15 -72
3 105 58 2 -108 -57 -96 36
-43 -13 73 21 -59 6 121 61
127 55 -73 127 -127 -30 56 82
-21 -69 31 123 97 -91 127 46
93 -102 -38 105 12 19 -8 -66
15 -61 -85 85 127 -23 -36 -56
00000000: b297 1296 8c13 dd54 b30a b311 f938 cbf0
00000010: db49 3e0f a096 363a 6b3b 56cb dbc4 0afd
00000020: 1394 f011 1c9a fe29 d2bc c6fc 07e9 4c08
00000030: 7f9a 5318 10c2 9eb6 7f7c b737 6bcb edce
00000040: 5df7 8614 8152 5af2 5fa1 cedb 2dfe a52c
00000050: c442 79a6 7f26 0eaf 9a8e 2781 b893 19f5
00000060: f181 75a3 8167 17f0 e16d 8566 1bef 163b
00000070: e866 6503 398c 81a4 e47f e44d e4b0 eae4
00000080: cde2 ee6c add8 7f86 3201 30cd 10d0 bae6
00000090: dbb6 e12f 487f 48eb ca0f 51a7 b0dd 16d4
000000a0: cbc0 00e7 f991 1681 f1b7 b238 c6e6 da2e
000000b0: e117 0dda 0e81 a4b5 d354 a1a5 d7f1 fe7f
000000c0: e75e 55f7 0481 aa7f d684 2b5a 2b7e 0fb8
000000d0: 0369 3a02 94c7 a024 d5f3 4915 c506 793d
000000e0: 7f37 b77f 81e2 3852 ebbb 1f7b 61a5 7f2e
000000f0: 5d9a da69 0c13 f8be 0fc3 ab55 7fe9 dcc8

model/dense/MatMul i1 [2, 256] scale=0.0047202893 zero_point=0
0.07080434 -0.0094405785 -0.014160868 0.05192318 -0.047202893 0.06136376 -0.047202893 -0.12744781
0.028321736 0.13688838 -0.018881157 0.10856666 -0.023601446 0.3020985 0.06136376 0.037762314
0.06608405 0.10384636 0.023601446 -0.07552463 0.05664347 0.023601446 0.10856666 0.06136376
0.05192318 0.018881157 0.0094405785 0.033042025 0.047202893 0.0 -0.09912607 -0.11328694
-0.094405785 -0.06136376 0.36346227 -0.06136376 -0.037762314 0.31153908 -0.10384636 0.0
0.0047202893 -0.0047202893 0.033042025 0.32097965 0.07552463 0.05664347 -0.12744781 -0.11328694
0.094405785 0.047202893 0.3068188 -0.018881157 -0.018881157 0.047202893 -0.042482603 0.0094405785
-0.5853159 -0.06136376 -0.014160868 0.033042025 0.094405785 0.037762314 0.0094405785 -0.12272752
-0.07080434 0.014160868 0.06136376 0.1321681 -0.047202893 0.11800723 -0.0094405785 0.07080434
-0.09912607 -0.5239521 0.042482603 0.047202893 -0.014160868 -0.033042025 0.018881157 -0.12744781
-0.09912607 0.0047202893 -0.07080434 -0.037762314 -0.06608405 -0.037762314 0.037762314 0.2596159
0.12272752 0.06136376 -0.0047202893 -0.14632897 0.09912607 -0.07552463 0.042482603 -0.45314777
-0.014160868 -0.047202893 0.05664347 0.20297244 0.0094405785 -0.10384636 -0.023601446 -0.023601446
-0.05192318 -0.014160868 -0.023601446 0.0094405785 -0.033042025 0.037762314 -0.037762314 0.033042025
-0.014160868 -0.023601446 0.11328694 -0.08024491 -0.14160869 -0.08496521 -0.09912607 0.042482603
0.028321736 0.033042025 -0.06608405 -0.037762314 0.07080434 0.0 0.11328694 0.047202893
0.06136376 -0.0094405785 -0.0896855 0.0094405785 -0.07552463 -0.10384636 0.023601446 0.0
-0.0047202893 0.07552463 -0.042482603 -0.06136376 -0.10856666 0.042482603 -0.05664347 -0.36346227
-0.042482603 -0.014160868 -0.023601446 -0.014160868 0.047202893 0.25489563 0.06136376 0.018881157
0.13688838 -0.10384636 0.07552463 0.0047202893 0.094405785 0.018881157 0.05192318 0.023601446
0.06136376 -0.0047202893 0.094405785 0.0 0.018881157 -0.028321736 0.042482603 0.037762314
0.018881157 -0.023601446 0.047202893 0.07080434 0.014160868 -0.018881157 -0.0896855 -0.0094405785
-0.037762314 -0.25489563 -0.08496521 0.037762314 0.023601446 0.018881157 -0.08024491 -0.037762314
0.033042025 0.042482603 0.05192318 -0.047202893 -0.094405785 0.2973782 -0.07552463 0.0094405785
-0.07080434 0.042482603 0.05664347 0.07552463 -0.12744781 -0.05664347 0.05192318 0.037762314
-0.34458113 -0.3493014 0.023601446 0.0047202893 0.033042025 0.05192318 0.023601446 -0.2218536
-0.0047202893 0.014160868 -0.042482603 0.0896855 0.042482603 0.028321736 0.2596159 0.10856666
0.08496521 -0.05664347 0.12744781 0.018881157 0.06608405 0.09912607 0.42010576 -0.06136376
0.06608405 0.10856666 -0.05664347 -0.0047202893 -0.042482603 0.08496521 -0.0896855 -0.047202893
0.023601446 -0.05192318 0.0094405785 0.0047202893 0.0 0.014160868 -0.05192318 -0.40594488
0.018881157 0.028321736 -0.12744781 0.13688838 -0.014160868 0.08496521 -0.037762314 0.05664347
-0.094405785 -0.16993041 -0.014160868 0.05192318 -0.11328694 0.21241301 0.13688838 -0.05192318
00000000: 0ffe fd0b f60d f6e5 061d fc17 fb40 0d08
00000010: 0e16 05f0 0c05 170d 0b04 0207 0a00 ebe8
00000020: ecf3 4df3 f842 ea00 01ff 0744 100c e5e8
00000030: 140a 41fc fc0a f702 84f3 fd07 1408 02e6
00000040: f103 0d1c f619 fe0f eb91 090a fdf9 04e5
00000050: eb01 f1f8 f2f8 0837 1a0d ffe1 15f0 09a0
00000060: fdf6 0c2b 02ea fbfb f5fd fb02 f908 f807
00000070: fdfb 18ef e2ee eb09 0607 f2f8 0f00 180a
00000080: 0dfe ed02 f0ea 0500 ff10 f7f3 e909 f4b3
00000090: f7fd fbfd 0a36 0d04 1dea 1001 1404 0b05
000000a0: 0dff 1400 04fa 0908 04fb 0a0f 03fc edfe
000000b0: f8ca ee08 0504 eff8 0709 0bf6 ec3f f002
000000c0: f109 0c10 e5f4 0b08 b7b6 0501 070b 05d1
000000d0: ff03 f713 0906 3717 12f4 1b04 0e15 59f3
000000e0: 0e17 f4ff f712 edf6 05f5 0201 0003 f5aa
000000f0: 0406 e51d fd12 f80c ecdc fd0b e82d 1df5

model/conv2d/Conv2D i1 [8, 3, 3, 3]
38 -93 71 34 -123 102 -1 -127
87 3 -93 87 -14 -42 13 21
1 41 29 -20 -5 70 -97 27
47 -88 1 -57 -31 127 -96 -2
42 -92 -21 120 8 -42 17 -101
5 70 -51 45 16 47 -15 -32
58 -42 29 27 -15 -11 -80 -96
-76 -35 -80 -69 12 1 -36 10
-80 -14 -11 -53 22 23 22 11
-12 9 25 44 12 11 127 23
37 85 39 -20 -37 -102 -77 91
28 -8 50 26 36 -94 -72 -127
48 -3 4 53 -33 28 -94 -5
38 -6 45 26 -34 47 17 -71
25 35 -90 -28 25 29 70 -68
-50 -52 -37 -127 -41 -53 15 31
33 15 77 -70 -62 -89 -72 -28
73 -44 -91 -78 -74 -59 -8 9
77 106 47 21 -37 58 -59 -89
-115 58 86 -22 127 58 11 -3
-19 14 69 -39 -18 84 -49 -50
27 -54 33 49 -57 -5 -5 -64
54 41 -60 33 28 -72 37 92
-127 71 79 -121 -15 26 -3 -38
-72 40 73 -127 -2 -13 18 31
11 17 -18 -35 -96 -33 -72 18
-17 47 -29 57 -44 -52 44 -69
00000000: 26a3 4722 8566 ff81 5703 a357 f2d6 0d15
00000010: 0129 1dec fb46 9f1b 2fa8 01c7 e17f a0fe
00000020: 2aa4 eb78 08d6 119b 0546 cd2d 102f f1e0
00000030: 3ad6 1d1b f1f5 b0a0 b4dd b0bb 0c01 dc0a
00000040: b0f2 f5cb 1617 160b f409 192c 0c0b 7f17
00000050: 2555 27ec db9a b35b 1cf8 321a 24a2 b881
00000060: 30fd 0435 df1c a2fb 26fa 2d1a de2f 11b9
00000070: 1923 a6e4 191d 46bc cecc db81 d7cb 0f1f
00000080: 210f 4dba c2a7 b8e4 49d4 a5b2 b6c5 f809
00000090: 4d6a 2f15 db3a c5a7 8d3a 56ea 7f3a 0bfd
000000a0: ed0e 45d9 ee54 cfce 1bca 2131 c7fb fbc0
000000b0: 3629 c421 1cb8 255c 8147 4f87 f11a fdda
000000c0: b828 4981 fef3 121f 0b11 eedd a0df b812
000000d0: ef2f e339 d4cc 2cbb

model/conv2d_1/Conv2D i1 [16, 1, 1, 8]
127 -22 60 -39 86 2 18 -3
-6 30 -68 -127 71 -72 125 -44
92 127 -7 -21 -51 -2 56 -1
17 -54 98 52 127 16 -28 -99
-31 34 96 -7 70 -3 116 -127
-11 12 15 39 30 127 -7 13
-5 6 -16 127 42 -7 31 6
-7 -7 32 -127 -17 16 -18 24
0 -46 -77 22 41 -8 -23 -127
-29 127 13 25 64 29 101 -16
22 -20 -25 -41 -14 -127 -9 -27
-127 -32 -11 -9 -11 -17 97 -38
29 -25 33 127 -26 -54 51 75
-32 35 127 17 16 72 35 44
-111 -60 87 36 -101 -40 -127 -71
-10 21 -13 -34 -46 -15 127 -11
00000000: 7fea 3cd9 5602 12fd fa1e bc81 47b8 7dd4
00000010: 5c7f f9eb cdfe 38ff 11ca 6234 7f10 e49d
00000020: e122 60f9 46fd 7481 f50c 0f27 1e7f f90d
00000030: fb06 f07f 2af9 1f06 f9f9 2081 ef10 ee18
00000040: 00d2 b316 29f8 e981 e37f 0d19 401d 65f0
00000050: 16ec e7d7 f281 f7e5 81e0 f5f7 f5ef 61da
00000060: 1de7 217f e6ca 334b e023 7f11 1048 232c
00000070: 91c4 5724 9bd8 81b9 f615 f3de d2f1 7ff5

model/conv2d_2/Conv2D i1 [32, 1, 1, 16]
-46 -67 63 102 30 46 50 115
13 -127 33 -25 34 22 7 -37
-41 8 17 -116 -19 -21 13 53
127 13 -14 35 -27 -72 45 -5
-110 8 106 -29 28 25 76 -23
68 -127 43 7 22 -36 3 67
-5 -16 -9 -33 63 127 -20 24
9 -35 109 76 6 -3 45 16
62 -40 -127 -16 -12 38 -27 -50
48 86 15 118 40 -32 20 -82
-7 3 -100 84 -25 -31 55 -59
5 25 4 127 -63 6 -4 58
10 27 21 -52 -45 -1 24 -111
23 -28 6 44 -18 127 -9 46
66 -78 -12 -8 127 34 25 38
72 52 12 -8 -9 80 -43 -29
-23 12 -51 92 -13 -62 -127 103
-47 -18 -36 -25 12 4 -54 9
-8 -73 19 67 -15 13 127 -92
2 -2 33 24 7 -69 -18 10
34 -30 10 -63 -12 37 42 16
-16 1 11 56 -55 127 33 -44
-22 -44 9 47 -21 25 -14 -41
127 -83 20 13 34 41 -14 -26
-71 50 86 15 -11 19 16 -43
28 -21 6 127 -32 -31 -34 52
33 -39 -30 127 47 57 -12 -52
27 43 51 -7 43 -4 -71 -22
-3 16 52 -127 -10 8 13 35
36 52 10 32 -29 -8 2 43
-16 -46 -54 -63 105 -75 -38 -127
21 119 -37 121 11 -16 -81 39
00000000: d2bd 3f66 1e2e 3273 0d81 21e7 2216 07db
00000010: d708 118c edeb 0d35 7f0d f223 e5b8 2dfb
00000020: 9208 6ae3 1c19 4ce9 4481 2b07 16dc 0343
00000030: fbf0 f7df 3f7f ec18 09dd 6d4c 06fd 2d10
00000040: 3ed8 81f0 f426 e5ce 3056 0f76 28e0 14ae
00000050: f903 9c54 e7e1 37c5 0519 047f c106 fc3a
00000060: 0a1b 15cc d3ff 1891 17e4 062c ee7f f72e
00000070: 42b2 f4f8 7f22 1926 4834 0cf8 f750 d5e3
00000080: e90c cd5c f3c2 8167 d1ee dce7 0c04 ca09
00000090: f8b7 1343 f10d 7fa4 02fe 2118 07bb ee0a
000000a0: 22e2 0ac1 f425 2a10 f001 0b38 c97f 21d4
000000b0: ead4 092f eb19 f2d7 7fad 140d 2229 f2e6
000000c0: b932 560f f513 10d5 1ceb 067f e0e1 de34
000000d0: 21d9 e27f 2f39 f4cc 1b2b 33f9 2bfc b9ea
000000e0: fd10 3481 f608 0d23 2434 0a20 e3f8 022b
000000f0: f0d2 cac1 69b5 da81 1577 db79 0bf0 af27

model/conv2d_3/Conv2D i1 [32, 1, 1, 32]
-46 1 13 -9 4 -12 33 -54
17 -21 -28 2 127 27 10 12
2 19 55 12 -8 -21 60 1
-23 -5 -70 -19 1 -1 -27 -32
19 -13 -4 23 -43 -41 -1 -43
127 -30 26 -6 -8 -66 21 -41
19 10 103 3 13 14 33 21
-47 -7 24 -68 -6 -70 -35 10
44 49 -6 3 -33 19 47 -25
12 50 20 20 21 -25 36 -38
85 10 37 -2 44 -10 0 14
-18 26 6 -17 -10 74 -127 21
-3 -19 -72 -7 72 -46 -10 63
102 -125 2 -50 31 45 23 -6
7 127 -48 19 2 -121 -32 -25
-26 43 -8 -27 -35 78 -7 -27
-32 -20 34 71 -88 8 -33 -20
3 -40 -26 -11 20 6 -8 127
-18 -23 -4 6 -2 102 7 24
47 12 13 3 17 -15 -7 -31
99 36 -27 27 39 -3 -33 3
-4 -112 5 4 -20 127 -12 29
57 -64 29 5 5 69 53 25
54 -1 -68 -42 -63 41 57 28
-32 37 -43 59 -104 46 39 -92
-47 111 0 -27 84 -14 15 -26
82 17 26 49 60 -26 3 13
-106 67 59 -13 -69 5 -127 25
46 20 -3 -20 21 -5 46 -28
47 -12 -15 58 6 35 -24 -1
-1 -9 7 127 -3 58 9 29
-37 16 41 -30 14 35 -11 -10
00000000: d201 0df7 04f4 21ca 11eb e402 7f1b 0a0c
00000010: 0213 370c f8eb 3c01 e9fb baed 01ff e5e0
00000020: 13f3 fc17 d5d7 ffd5 7fe2 1afa f8be 15d7
00000030: 130a 6703 0d0e 2115 d1f9 18bc faba dd0a
00000040: 2c31 fa03 df13 2fe7 0c32 1414 15e7 24da
00000050: 550a 25fe 2cf6 000e ee1a 06ef f64a 8115
00000060: fded b8f9 48d2 f63f 6683 02ce 1f2d 17fa
00000070: 077f d013 0287 e0e7 e62b f8e5 dd4e f9e5
00000080: e0ec 2247 a808 dfec 03d8 e6f5 1406 f87f
00000090: eee9 fc06 fe66 0718 2f0c 0d03 11f1 f9e1
000000a0: 6324 e51b 27fd df03 fc90 0504 ec7f f41d
000000b0: 39c0 1d05 0545 3519 36ff bcd6 c129 391c
000000c0: e025 d53b 982e 27a4 d16f 00e5 54f2 0fe6
000000d0: 5211 1a31 3ce6 030d 9643 3bf3 bb05 8119
000000e0: 2e14 fdec 15fb 2ee4 2ff4 f13a 0623 e8ff
000000f0: fff7 077f fd3a 091d db10 29e2 0e23 f5f6

model/conv2d_4/Conv2D i1 [64, 1, 1, 32]
11 13 -17 -21 114 17 127 4
-67 37 -35 5 24 14 -49 -79
-40 -55 1 2 2 -10 -14 1
-79 33 -20 15 -26 -70 24 26
52 24 -32 -21 -3 -48 -56 127
29 68 20 -43 16 109 -51 -46
-21 12 -3 -14 -107 124 -14 82
-8 7 -107 -103 -77 47 29 108
80 62 -34 44 -52 -25 97 20
7 89 -82 12 -18 120 -50 -39
-43 -60 20 -57 -93 -35 40 -41
30 103 -127 -11 -127 27 -25 22
-57 -22 -76 49 112 81 14 70
33 76 5 -79 -78 5 28 22
15 43 -16 -19 -22 26 -59 -51
-69 127 -33 -23 38 -124 9 -57
25 23 -16 -127 37 -113 -31 10
-68 -13 11 -115 -105 4 74 124
-6 63 29 72 -71 99 42 -22
52 27 106 -12 -11 -59 5 26
-19 -2 67 -20 -32 -80 -56 28
56 33 -7 -51 -6 -16 28 25
10 112 27 -26 -41 56 -24 -52
29 34 36 -127 -27 -4 -37 57
19 10 -7 13 -35 -87 19 0
61 31 25 -47 19 -101 24 -73
9 -27 -57 34 12 127 8 -22
10 -96 64 -117 22 -24 32 -24
-61 -92 6 -4 21 20 127 -8
48 -17 -20 -3 -46 23 31 -60
4 -8 -13 26 46 -18 1 -15
-4 15 44 10 11 -30 28 46
00000000: 0b0d efeb 7211 7f04 bd25 dd05 180e cfb1
00000010: d8c9 0102 02f6 f201 b121 ec0f e6ba 181a
00000020: 3418 e0eb fdd0 c87f 1d44 14d5 106d cdd2
00000030: eb0c fdf2 957c f252 f807 9599 b32f 1d6c
00000040: 503e de2c cce7 6114 0759 ae0c ee78 ced9
00000050: d5c4 14c7 a3dd 28d7 1e67 81f5 811b e716
00000060: c7ea b431 7051 0e46 214c 05b1 b205 1c16
00000070: 0f2b f0ed ea1a c5cd bb7f dfe9 2684 09c7
00000080: 1917 f081 258f e10a bcf3 0b8d 9704 4a7c
00000090: fa3f 1d48 b963 2aea 341b 6af4 f5c5 051a
000000a0: edfe 43ec e0b0 c81c 3821 f9cd faf0 1c19
000000b0: 0a70 1be6 d738 e8cc 1d22 2481 e5fc db39
000000c0: 130a f90d dda9 1300 3d1f 19d1 139b 18b7
000000d0: 09e5 c722 0c7f 08ea 0aa0 408b 16e8 20e8
000000e0: c3a4 06fc 1514 7ff8 30ef ecfd d217 1fc4
000000f0: 04f8 f31a 2eee 01f1 fc0f 2c0a 0be2 1c2e

model/conv2d_5/Conv2D i1 [64, 1, 1, 64]
10 72 4 68 6 -11 -36 -102
25 55 67 -24 35 26 23 -83
49 -6 -34 4 -104 -11 -37 25
2 -9 20 -33 -5 -36 -15 26
-28 -15 -42 54 76 -46 40 -31
4 4 25 -34 -41 16 69 57
-56 -44 -33 8 -18 44 -27 16
127 5 31 -23 3 -23 20 -23
31 -39 89 -2 5 13 49 91
-53 16 -28 -31 -20 6 19 63
-40 26 60 22 10 45 17 -14
28 5 80 52 -85 54 -40 48
47 100 -38 -59 37 47 38 123
60 24 62 21 127 -74 -11 -3
36 87 -5 -1 -36 69 -22 100
-31 -119 21 4 112 66 -15 43
106 -28 10 127 -25 -37 92 112
-53 -80 33 81 -55 -39 97 100
-54 -110 -74 -12 13 -65 -59 -67
-53 -19 -24 -63 -124 9 47 -13
-7 102 -78 22 48 -69 22 -25
77 -4 -42 38 -44 29 -50 -22
4 12 -71 13 28 111 23 78
-32 126 109 4 -71 69 -51 -71
0 0 0 0 0 0 0 0
0 0 0 0 0 0 0 0
0 0 0 0 0 0 0 0
0 0 0 0 0 0 0 0
0 0 0 0 0 0 0 0
0 0 0 0 0 0 0 0
0 0 0 0 0 0 0 0
0 0 0 0 0 0 0 0
00000000: 0a48 0444 06f5 dc9a 1937 43e8 231a 17ad
00000010: 31fa de04 98f5 db19 02f7 14df fbdc f11a
00000020: e4f1 d636 4cd2 28e1 0404 19de d710 4539
00000030: c8d4 df08 ee2c e510 7f05 1fe9 03e9 14e9
00000040: 1fd9 59fe 050d 315b cb10 e4e1 ec06 133f
00000050: d81a 3c16 0a2d 11f2 1c05 5034 ab36 d830
00000060: 2f64 dac5 252f 267b 3c18 3e15 7fb6 f5fd
00000070: 2457 fbff dc45 ea64 e189 1504 7042 f12b
00000080: 6ae4 0a7f e7db 5c70 cbb0 2151 c9d9 6164
00000090: ca92 b6f4 0dbf c5bd cbed e8c1 8409 2ff3
000000a0: f966 b216 30bb 16e7 4dfc d626 d41d ceea
000000b0: 040c b90d 1c6f 174e e07e 6d04 b945 cdb9
000000c0: 0000 0000 0000 0000 0000 0000 0000 0000
000000d0: 0000 0000 0000 0000 0000 0000 0000 0000
000000e0: 0000 0000 0000 0000 0000 0000 0000 0000
000000f0: 0000 0000 0000 0000 0000 0000 0000 0000

model/conv2d_6/Conv2D i1 [128, 1, 1, 64]
-59 40 58 0 15 -25 -3 35
76 -10 -11 23 0 0 67 36
-13 32 -89 -74 31 -48 -25 -48
-33 -116 -5 -107 49 19 7 -94
-1 14 -42 -125 -9 -70 -83 4
-32 14 -67 -87 64 42 127 0
-5 117 -40 -3 108 6 13 5
27 5 -67 -58 15 6 -109 62
-11 0 127 0 -97 -44 25 13
104 4 94 125 0 0 -47 35
32 71 71 72 99 -15 34 -127
-94 -18 -10 -49 43 24 -8 55
103 107 49 54 27 -21 37 5
-26 -59 3 -26 52 -55 -47 0
78 85 4 -23 89 5 12 98
-56 -17 9 79 -61 -52 47 -37
-12 -116 73 0 12 -1 6 37
-21 -35 108 24 0 0 108 -46
-50 -25 4 -23 -70 -87 -37 72
-42 16 58 -44 53 0 44 73
34 36 60 38 10 -64 25 3
5 32 -11 -60 20 -127 66 0
-84 -23 32 -7 -8 -11 -41 -96
33 13 38 -58 -44 -2 11 -4
-54 -14 -40 0 -26 37 -9 6
-1 98 -28 -26 0 0 22 -76
-51 -20 30 -25 33 16 -55 -72
-5 -23 -97 33 -42 48 127 53
-12 -24 -40 10 -20 -37 -19 -5
20 -8 5 -25 -4 48 -87 0
42 -36 -87 27 58 -5 9 -38
-17 34 11 -27 2 8 90 -64
00000000: c528 3a00 0fe7 fd23 4cf6 f517 0000 4324
00000010: f320 a7b6 1fd0 e7d0 df8c fb95 3113 07a2
00000020: ff0e d683 f7ba ad04 e00e bda9 402a 7f00
00000030: fb75 d8fd 6c06 0d05 1b05 bdc6 0f06 933e
00000040: f500 7f00 9fd4 190d 6804 5e7d 0000 d123
00000050: 2047 4748 63f1 2281 a2ee f6cf 2b18 f837
00000060: 676b 3136 1beb 2505 e6c5 03e6 34c9 d100
00000070: 4e55 04e9 5905 0c62 c8ef 094f c3cc 2fdb
00000080: f48c 4900 0cff 0625 ebdd 6c18 0000 6cd2
00000090: cee7 04e9 baa9 db48 d610 3ad4 3500 2c49
000000a0: 2224 3c26 0ac0 1903 0520 f5c4 1481 4200
000000b0: ace9 20f9 f8f5 d7a0 210d 26c6 d4fe 0bfc
000000c0: caf2 d800 e625 f706 ff62 e4e6 0000 16b4
000000d0: cdec 1ee7 2110 c9b8 fbe9 9f21 d630 7f35
000000e0: f4e8 d80a ecdb edfb 14f8 05e7 fc30 a900
000000f0: 2adc a91b 3afb 09da ef22 0be5 0208 5ac0

model/conv2d_7/Conv2D i1 [128, 1, 1, 128]
0 0 0 0 0 0 0 0
0 0 0 0 0 0 0 0
0 0 0 0 0 0 0 0
0 0 0 0 0 0 0 0
0 0 0 0 0 0 0 0
0 0 0 0 0 0 0 0
0 0 0 0 0 0 0 0
0 0 0 0 0 0 0 0
0 0 0 0 0 0 0 0
0 0 0 0 0 0 0 0
0 0 0 0 0 0 0 0
0 0 0 0 0 0 0 0
0 0 0 0 0 0 0 0
0 0 0 0 0 0 0 0
0 0 0 0 0 0 0 0
0 0 0 0 0 0 0 0
-4 -12 63 -26 -54 -105 11 56
26 -22 -106 -12 -74 36 39 31
-20 0 28 0 0 -37 -37 0
-6 0 66 86 40 49 0 -74
-40 -23 31 11 6 0 -64 -17
93 18 -10 35 0 0 -5 46
70 -19 -111 -35 64 0 8 8
51 0 -59 0 21 12 -75 -32
19 -1 2 0 0 57 24 81
0 84 4 58 -34 -82 0 55
-18 -5 14 93 -20 -69 55 0
27 24 9 30 19 -36 0 -15
-59 0 0 -41 23 2 -54 0
0 9 57 -44 6 20 0 8
17 -66 62 52 -5 7 31 -3
-65 9 127 -53 94 -50 5 -3
00000000: 0000 0000 0000 0000 0000 0000 0000 0000
00000010: 0000 0000 0000 0000 0000 0000 0000 0000
00000020: 0000 0000 0000 0000 0000 0000 0000 0000
00000030: 0000 0000 0000 0000 0000 0000 0000 0000
00000040: 0000 0000 0000 0000 0000 0000 0000 0000
00000050: 0000 0000 0000 0000 0000 0000 0000 0000
00000060: 0000 0000 0000 0000 0000 0000 0000 0000
00000070: 0000 0000 0000 0000 0000 0000 0000 0000
00000080: fcf4 3fe6 ca97 0b38 1aea 96f4 b624 271f
00000090: ec00 1c00 00db db00 fa00 4256 2831 00b6
000000a0: d8e9 1f0b 0600 c0ef 5d12 f623 0000 fb2e
000000b0: 46ed 91dd 4000 0808 3300 c500 150c b5e0
000000c0: 13ff 0200 0039 1851 0054 043a deae 0037
000000d0: eefb 0e5d ecbb 3700 1b18 091e 13dc 00f1
000000e0: c500 00d7 1702 ca00 0009 39d4 0614 0008
000000f0: 11be 3e34 fb07 1ffd bf09 7fcb 5ece 05fd

model/conv2d_8/Conv2D i1 [128, 1, 1, 128]
0 0 0 0 0 0 0 0
0 0 0 0 0 0 0 0
0 0 0 0 0 0 0 0
0 0 0 0 0 0 0 0
0 0 0 0 0 0 0 0
0 0 0 0 0 0 0 0
0 0 0 0 0 0 0 0
0 0 0 0 0 0 0 0
0 0 0 0 0 0 0 0
0 0 0 0 0 0 0 0
0 0 0 0 0 0 0 0
0 0 0 0 0 0 0 0
0 0 0 0 0 0 0 0
0 0 0 0 0 0 0 0
0 0 0 0 0 0 0 0
0 0 0 0 0 0 0 0
0 0 0 0 0 0 0 0
0 0 0 0 0 0 0 0
0 0 0 0 0 0 0 0
0 0 0 0 0 0 0 0
0 0 0 0 0 0 0 0
0 0 0 0 0 0 0 0
0 0 0 0 0 0 0 0
0 0 0 0 0 0 0 0
0 0 0 0 0 0 0 0
0 0 0 0 0 0 0 0
0 0 0 0 0 0 0 0
0 0 0 0 0 0 0 0
0 0 0 0 0 0 0 0
0 0 0 0 0 0 0 0
0 0 0 0 0 0 0 0
0 0 0 0 0 0 0 0
00000000: 0000 0000 0000 0000 0000 0000 0000 0000
00000010: 0000 0000 0000 0000 0000 0000 0000 0000
00000020: 0000 0000 0000 0000 0000 0000 0000 0000
00000030: 0000 0000 0000 0000 0000 0000 0000 0000
00000040: 0000 0000 0000 0000 0000 0000 0000 0000
00000050: 0000 0000 0000 0000 0000 0000 0000 0000
00000060: 0000 0000 0000 0000 0000 0000 0000 0000
00000070: 0000 0000 0000 0000 0000 0000 0000 0000
00000080: 0000 0000 0000 0000 0000 0000 0000 0000
00000090: 0000 0000 0000 0000 0000 0000 0000 0000
000000a0: 0000 0000 0000 0000 0000 0000 0000 0000
000000b0: 0000 0000 0000 0000 0000 0000 0000 0000
000000c0: 0000 0000 0000 0000 0000 0000 0000 0000
000000d0: 0000 0000 0000 0000 0000 0000 0000 0000
000000e0: 0000 0000 0000 0000 0000 0000 0000 0000
000000f0: 0000 0000 0000 0000 0000 0000 0000 0000

model/conv2d_9/Conv2D i1 [128, 1, 1, 128]
0 0 0 0 0 0 0 0
0 0 0 0 0 0 0 0
0 0 0 0 0 0 0 0
0 0 0 0 0 0 0 0
0 0 0 0 0 0 0 0
0 0 0 0 0 0 0 0
0 0 0 0 0 0 0 0
0 0 0 0 0 0 0 0
0 0 0 0 0 0 0 0
0 0 0 0 0 0 0 0
0 0 0 0 0 0 0 0
0 0 0 0 0 0 0 0
0 0 0 0 0 0 0 0
0 0 0 0 0 0 0 0
0 0 0 0 0 0 0 0
0 0 0 0 0 0 0 0
0 0 0 0 0 0 0 0
0 0 0 0 0 0 0 0
0 0 0 0 0 0 0 0
0 0 0 0 0 0 0 0
0 0 0 0 0 0 0 0
0 0 0 0 0 0 0 0
0 0 0 0 0 0 0 0
0 0 0 0 0 0 0 0
0 0 0 0 0 0 0 0
0 0 0 0 0 0 0 0
0 0 0 0 0 0 0 0
0 0 0 0 0 0 0 0
0 0 0 0 0 0 0 0
0 0 0 0 0 0 0 0
0 0 0 0 0 0 0 0
0 0 0 0 0 0 0 0
00000000: 0000 0000 0000 0000 0000 0000 0000 0000
00000010: 0000 0000 0000 0000 0000 0000 0000 0000
00000020: 0000 0000 0000 0000 0000 0000 0000 0000
00000030: 0000 0000 0000 0000 0000 0000 0000 0000
00000040: 0000 0000 0000 0000 0000 0000 0000 0000
00000050: 0000 0000 0000 0000 0000 0000 0000 0000
00000060: 0000 0000 0000 0000 0000 0000 0000 0000
00000070: 0000 0000 0000 0000 0000 0000 0000 0000
00000080: 0000 0000 0000 0000 0000 0000 0000 0000
00000090: 0000 0000 0000 0000 0000 0000 0000 0000
000000a0: 0000 0000 0000 0000 0000 0000 0000 0000
000000b0: 0000 0000 0000 0000 0000 0000 0000 0000
000000c0: 0000 0000 0000 0000 0000 0000 0000 0000
000000d0: 0000 0000 0000 0000 0000 0000 0000 0000
000000e0: 0000 0000 0000 0000 0000 0000 0000 0000
000000f0: 0000 0000 0000 0000 0000 0000 0000 0000

model/conv2d_10/Conv2D i1 [128, 1, 1, 128]
0 0 0 0 0 0 0 0
0 0 0 0 0 0 0 0
0 0 0 0 0 0 0 0
0 0 0 0 0 0 0 0
0 0 0 0 0 0 0 0
0 0 0 0 0 0 0 0
0 0 0 0 0 0 0 0
0 0 0 0 0 0 0 0
0 0 0 0 0 0 0 0
0 0 0 0 0 0 0 0
0 0 0 0 0 0 0 0
0 0 0 0 0 0 0 0
0 0 0 0 0 0 0 0
0 0 0 0 0 0 0 0
0 0 0 0 0 0 0 0
0 0 0 0 0 0 0 0
0 0 0 0 0 0 0 0
0 0 0 0 0 0 0 0
0 0 0 0 0 0 0 0
0 0 0 0 0 0 0 0
0 0 0 0 0 0 0 0
0 0 0 0 0 0 0 0
0 0 0 0 0 0 0 0
0 0 0 0 0 0 0 0
0 0 0 0 0 0 0 0
0 0 0 0 0 0 0 0
0 0 0 0 0 0 0 0
0 0 0 0 0 0 0 0
0 0 0 0 0 0 0 0
0 0 0 0 0 0 0 0
0 0 0 0 0 0 0 0
0 0 0 0 0 0 0 0
00000000: 0000 0000 0000 0000 0000 0000 0000 0000
00000010: 0000 0000 0000 0000 0000 0000 0000 0000
00000020: 0000 0000 0000 0000 0000 0000 0000 0000
00000030: 0000 0000 0000 0000 0000 0000 0000 0000
00000040: 0000 0000 0000 0000 0000 0000 0000 0000
00000050: 0000 0000 0000 0000 0000 0000 0000 0000
00000060: 0000 0000 0000 0000 0000 0000 0000 0000
00000070: 0000 0000 0000 0000 0000 0000 0000 0000
00000080: 0000 0000 0000 0000 0000 0000 0000 0000
00000090: 0000 0000 0000 0000 0000 0000 0000 0000
000000a0: 0000 0000 0000 0000 0000 0000 0000 0000
000000b0: 0000 0000 0000 0000 0000 0000 0000 0000
000000c0: 0000 0000 0000 0000 0000 0000 0000 0000
000000d0: 0000 0000 0000 0000 0000 0000 0000 0000
000000e0: 0000 0000 0000 0000 0000 0000 0000 0000
000000f0: 0000 0000 0000 0000 0000 0000 0000 0000

model/conv2d_11/Conv2D i1 [128, 1, 1, 128]
0 0 0 0 0 0 0 0
0 0 0 0 0 0 0 0
0 0 0 0 0 0 0 0
0 0 0 0 0 0 0 0
0 0 0 0 0 0 0 0
0 0 0 0 0 0 0 0
0 0 0 0 0 0 0 0
0 0 0 0 0 0 0 0
0 0 0 0 0 0 0 0
0 0 0 0 0 0 0 0
0 0 0 0 0 0 0 0
0 0 0 0 0 0 0 0
0 0 0 0 0 0 0 0
0 0 0 0 0 0 0 0
0 0 0 0 0 0 0 0
0 0 0 0 0 0 0 0
0 0 0 0 0 127 -11 0
0 0 0 0 0 0 35 0
0 0 0 0 0 0 0 0
0 0 0 0 0 0 0 0
0 0 0 0 0 0 0 0
0 0 0 0 0 0 0 0
0 0 0 0 0 -41 0 0
0 0 0 0 -88 0 14 0
0 0 0 0 0 -7 -4 0
0 0 0 0 0 0 -76 0
0 108 0 0 0 0 0 -8
0 0 -32 0 -1 0 0 0
0 0 0 0 0 0 0 0
0 0 65 0 -9 0 0 0
0 0 0 0 0 0 2 0
0 0 0 0 0 0 0 0
00000000: 0000 0000 0000 0000 0000 0000 0000 0000
00000010: 0000 0000 0000 0000 0000 0000 0000 0000
00000020: 0000 0000 0000 0000 0000 0000 0000 0000
00000030: 0000 0000 0000 0000 0000 0000 0000 0000
00000040: 0000 0000 0000 0000 0000 0000 0000 0000
00000050: 0000 0000 0000 0000 0000 0000 0000 0000
00000060: 0000 0000 0000 0000 0000 0000 0000 0000
00000070: 0000 0000 0000 0000 0000 0000 0000 0000
00000080: 0000 0000 007f f500 0000 0000 0000 2300
00000090: 0000 0000 0000 0000 0000 0000 0000 0000
000000a0: 0000 0000 0000 0000 0000 0000 0000 0000
000000b0: 0000 0000 00d7 0000 0000 0000 a800 0e00
000000c0: 0000 0000 00f9 fc00 0000 0000 0000 b400
000000d0: 006c 0000 0000 00f8 0000 e000 ff00 0000
000000e0: 0000 0000 0000 0000 0000 4100 f700 0000
000000f0: 0000 0000 0000 0200 0000 0000 0000 0000

model/conv2d_12/Conv2D i1 [256, 1, 1, 128]
0 0 0 0 0 0 0 0
0 0 0 0 0 0 0 0
0 0 0 0 0 0 0 0
0 0 0 0 0 0 0 0
0 0 0 0 0 0 0 0
0 0 0 0 0 0 0 0
0 0 0 0 0 0 0 0
0 0 0 0 0 0 0 0
0 0 0 0 0 0 0 0
0 0 0 0 0 0 0 0
0 0 0 0 0 0 0 0
0 0 0 0 0 0 0 0
0 0 0 0 0 0 0 0
0 0 0 0 0 0 0 0
0 0 0 0 0 0 0 0
0 0 0 0 0 0 0 0
0 -53 0 0 0 0 4 0
0 0 0 0 0 0 0 0
0 0 0 0 0 0 0 0
0 0 0 0 0 0 0 0
0 0 0 70 11 0 0 0
0 0 0 25 0 0 0 0
0 -6 0 0 22 0 0 0
0 0 0 -1 0 -20 0 0
0 0 0 0 0 5 0 0
0 0 0 0 23 127 0 0
0 0 0 0 0 0 0 45
0 0 0 17 44 0 0 0
0 -1 0 0 0 61 0 0
0 0 10 0 0 -3 0 8
37 0 0 0 0 0 34 0
0 67 0 5 0 0 0 -15
00000000: 0000 0000 0000 0000 0000 0000 0000 0000
00000010: 0000 0000 0000 0000 0000 0000 0000 0000
00000020: 0000 0000 0000 0000 0000 0000 0000 0000
00000030: 0000 0000 0000 0000 0000 0000 0000 0000
00000040: 0000 0000 0000 0000 0000 0000 0000 0000
00000050: 0000 0000 0000 0000 0000 0000 0000 0000
00000060: 0000 0000 0000 0000 0000 0000 0000 0000
00000070: 0000 0000 0000 0000 0000 0000 0000 0000
00000080: 00cb 0000 0000 0400 0000 0000 0000 0000
00000090: 0000 0000 0000 0000 0000 0000 0000 0000
000000a0: 0000 0046 0b00 0000 0000 0019 0000 0000
000000b0: 00fa 0000 1600 0000 0000 00ff 00ec 0000
000000c0: 0000 0000 0005 0000 0000 0000 177f 0000
000000d0: 0000 0000 0000 002d 0000 0011 2c00 0000
000000e0: 00ff 0000 003d 0000 0000 0a00 00fd 0008
000000f0: 2500 0000 0000 2200 0043 0005 0000 00f1

model/conv2d_13/Conv2D i1 [256, 1, 1, 256]
0 0 0 0 0 0 0 0
0 0 0 0 0 0 0 0
0 0 0 0 0 0 0 0
0 0 0 0 0 0 0 0
0 0 0 0 0 0 0 0
0 0 0 0 0 0 0 0
0 0 0 0 0 0 0 0
0 0 0 0 0 0 0 0
0 0 0 0 0 0 0 0
0 0 0 0 0 0 0 0
0 0 0 0 0 0 0 0
0 0 0 0 0 0 0 0
0 0 0 0 0 0 0 0
0 0 0 0 0 0 0 0
0 0 0 0 0 0 0 0
0 0 0 0 0 0 0 0
0 0 0 0 0 0 0 0
0 0 0 0 0 0 0 0
0 0 0 0 0 0 0 0
0 0 0 0 0 0 0 0
0 0 0 0 0 0 0 0
0 0 0 0 0 0 0 0
0 0 0 0 0 0 0 0
0 0 0 0 0 0 0 0
0 0 0 0 0 0 0 0
0 0 0 0 0 0 0 0
0 0 0 0 0 0 0 0
0 0 0 0 0 0 0 0
0 0 0 0 0 0 0 0
0 0 0 0 0 0 0 0
0 0 0 0 0 0 0 0
0 0 0 0 0 0 0 0
00000000: 0000 0000 0000 0000 0000 0000 0000 0000
00000010: 0000 0000 0000 0000 0000 0000 0000 0000
00000020: 0000 0000 0000 0000 0000 0000 0000 0000
00000030: 0000 0000 0000 0000 0000 0000 0000 0000
00000040: 0000 0000 0000 0000 0000 0000 0000 0000
00000050: 0000 0000 0000 0000 0000 0000 0000 0000
00000060: 0000 0000 0000 0000 0000 0000 0000 0000
00000070: 0000 0000 0000 0000 0000 0000 0000 0000
00000080: 0000 0000 0000 0000 0000 0000 0000 0000
00000090: 0000 0000 0000 0000 0000 0000 0000 0000
000000a0: 0000 0000 0000 0000 0000 0000 0000 0000
000000b0: 0000 0000 0000 0000 0000 0000 0000 0000
000000c0: 0000 0000 0000 0000 0000 0000 0000 0000
000000d0: 0000 0000 0000 0000 0000 0000 0000 0000
000000e0: 0000 0000 0000 0000 0000 0000 0000 0000
000000f0: 0000 0000 0000 0000 0000 0000 0000 0000
